Coaxial Drone Python/NetworkPytorch/model_pt_file/20231218-084806_10.pt (torch, 19010 bytes, 24 tensors)

fc1.weight f4 [10, 6]
00000000: 76f6 683e ac9c b63c 4b07 75bc dcd9 143e
00000010: 9604 35be 4cbd 3fbe f5ea 683e 88c0 b73c
00000020: 8ef6 76bc a6a6 143e fbdf 34be 68d6 3fbe
00000030: 01dc 6d3e 079a 9bbc fdfb 2b3c 0a69 2c3e
00000040: 998e 89bc 61ba 02be afe9 683e 70d8 b73c
00000050: c7ac 76bc 849f 143e 52d8 34be eed3 3fbe
00000060: e2f5 683e 8f9c b63c b808 75bc a4d9 143e
00000070: ff04 35be f6bc 3fbe ab00 0000 ab00 0080
00000080: ab00 0000 ab00 0080 ab00 0080 ab00 0080
00000090: 06ea 6d3e 40a7 9bbc 30f6 2b3c cb74 2c3e
000000a0: 46d5 89bc 1bca 02be 30ec 683e d9d8 b73c
000000b0: 8ea6 76bc 8d9f 143e c5dc 34be 3bd8 3fbe
000000c0: 78f3 683e 929d b63c 050f 75bc 6bd9 143e
000000d0: a602 35be 12ba 3fbe ab00 0080 ab00 0080
000000e0: ab00 0000 ab00 0080 ab00 0000 ab00 0080
0.22750267 0.022291504 -0.014955352 0.14536232 -0.1767753 -0.18724555 0.22745879 0.022430673
-0.015073432 0.14516696 -0.17663567 -0.18734133 0.23228456 -0.018994344 0.01049709 0.16836944
-0.016791629 -0.1276641 0.22745393 0.022442073 -0.015055842 0.14513975 -0.17660645 -0.18733189
0.22750047 0.02229145 -0.014955692 0.14536148 -0.17677687 -0.18724427 2.4e-43 -2.4e-43
2.4e-43 -2.4e-43 -2.4e-43 -2.4e-43 0.23233804 -0.01900065 0.010495707 0.16841428
-0.01682533 -0.1277241 0.22746348 0.022442268 -0.015054358 0.14513989 -0.17662342 -0.18734829
0.22749126 0.022291932 -0.014957194 0.14536063 -0.17676792 -0.18723324 -2.4e-43 -2.4e-43
2.4e-43 -2.4e-43 2.4e-43 -2.4e-43

fc1.bias f4 [10]
00000000: 0762 ef3f 0b60 ef3f 13f6 ee3f f35f ef3f
00000010: c161 ef3f f154 96be 6f18 0040 d95f ef3f
00000020: 0c63 ef3f daca 97be
1.870179 1.8701185 1.8668846 1.8701156 1.8701707 -0.2936168 2.0014913 1.8701125
1.8702102 -0.2964695

fc2.weight f4 [30, 10]
00000000: 53fd ac3d b3fe ac3d 62ee 7e3d cdfe ac3d
00000010: 06fd ac3d 3f00 0000 3afe 6c3d 89fe ac3d
00000020: 4ffd ac3d 3f00 0000 59e8 ac3d b9e9 ac3d
00000030: d6ea 7e3d c7e9 ac3d 08e8 ac3d 3f00 0000
00000040: edfd 6c3d 82e9 ac3d 59e8 ac3d 3f00 0000
00000050: 78eb ac3d d1ec ac3d 49ec 7e3d fcec ac3d
00000060: 22eb ac3d 3f00 0000 f7fe 6c3d aeec ac3d
00000070: 76eb ac3d 3f00 0080 00f4 ac3d 63f5 ac3d
00000080: b7ba 7e3d 7ef5 ac3d b2f3 ac3d 3f00 0080
00000090: 0fca 6c3d 39f5 ac3d 06f4 ac3d 3f00 0080
000000a0: 3f00 0080 3f00 0080 3f00 0080 3f00 0080
000000b0: 3f00 0000 3f00 0000 3f00 0080 3f00 0000
000000c0: 3f00 0080 3f00 0080 dce9 ac3d 46eb ac3d
000000d0: adeb 7e3d 69eb ac3d 96e9 ac3d 3f00 0000
000000e0: 6bfe 6c3d 23eb ac3d ede9 ac3d 3f00 0080
000000f0: 4000 ad3d 9901 ad3d aae2 7e3d b901 ad3d
00000100: e2ff ac3d 3f00 0080 8ef1 6c3d 6601 ad3d
00000110: 3f00 ad3d 3f00 0080 3f00 0000 3f00 0080
00000120: 3f00 0080 3f00 0000 3f00 0000 3f00 0000
00000130: 3f00 0000 3f00 0000 3f00 0000 3f00 0000
00000140: 46df ac3d a7e0 ac3d 058e 7e3d bce0 ac3d
00000150: f4de ac3d 3f00 0000 ea9e 6c3d 7fe0 ac3d
00000160: 44df ac3d 3f00 0080 30ed ac3d 9aee ac3d
00000170: 27ab 7e3d b2ee ac3d ebec ac3d 3f00 0000
00000180: f2ba 6c3d 6bee ac3d 3bed ac3d 3f00 0000
00000190: abe4 ac3d 01e6 ac3d d7e8 7e3d 1ee6 ac3d
000001a0: 52e4 ac3d 3f00 0080 5bfc 6c3d d7e5 ac3d
000001b0: 91e4 ac3d 3f00 0000 96ac 8d81 96ac 8d81
000001c0: 96ac 8d81 96ac 8d81 96ac 8d81 3f00 0080
000001d0: 96ac 8d81 96ac 8d81 96ac 8d81 3f00 0080
000001e0: 5200 ad3d ae01 ad3d 1ee6 7e3d c701 ad3d
000001f0: 0c00 ad3d 3f00 0080 3cf5 6c3d 8c01 ad3d
00000200: 5800 ad3d 3f00 0080 70f2 ac3d d4f3 ac3d
00000210: 0aef 7e3d f2f3 ac3d 22f2 ac3d 3f00 0080
00000220: a600 6d3d adf3 ac3d 70f2 ac3d 3f00 0000
00000230: 4300 ad3d 9e01 ad3d 50e7 7e3d bb01 ad3d
00000240: f1ff ac3d 3f00 0000 76f6 6c3d 7601 ad3d
00000250: 4600 ad3d 3f00 0080 3f00 0080 3f00 0080
00000260: 3f00 0080 3f00 0080 3f00 0080 3f00 0080
00000270: 3f00 0080 3f00 0080 3f00 0080 3f00 0080
00000280: 3f00 0080 3f00 0080 3f00 0080 3f00 0080
00000290: 3f00 0000 3f00 0080 3f00 0000 3f00 0000
000002a0: 3f00 0080 3f00 0080 3f00 0000 3f00 0080
000002b0: 3f00 0080 3f00 0080 3f00 0000 3f00 0000
000002c0: 3f00 0080 3f00 0000 3f00 0000 3f00 0000
000002d0: 9adc ac3d fedd ac3d eae3 7e3d 2ade ac3d
000002e0: 4edc ac3d 3f00 0080 88f8 6c3d d9dd ac3d
000002f0: 9bdc ac3d 3f00 0000 3f00 0080 3f00 0000
00000300: 3f00 0000 3f00 0000 3f00 0080 3f00 0000
00000310: 3f00 0080 3f00 0000 3f00 0000 3f00 0000
00000320: 96ac 8d81 96ac 8d81 96ac 8d81 96ac 8d81
00000330: 96ac 8d81 3f00 0080 96ac 8d81 96ac 8d81
00000340: 96ac 8d81 3f00 0000 11fa ac3d 73fb ac3d
00000350: d1ef 7e3d 8cfb ac3d bef9 ac3d 3f00 0000
00000360: 4c00 6d3d 3dfb ac3d 17fa ac3d 3f00 0080
00000370: 70e0 ac3d d6e1 ac3d 4ee6 7e3d e9e1 ac3d
00000380: 29e0 ac3d 3f00 0000 6efa 6c3d b3e1 ac3d
00000390: 77e0 ac3d 3f00 0080 3f00 0080 3f00 0080
000003a0: 3f00 0080 3f00 0000 3f00 0000 3f00 0080
000003b0: 3f00 0000 3f00 0080 3f00 0000 3f00 0000
000003c0: 96ac 8d81 96ac 8d81 96ac 8d81 3f00 0080
000003d0: 96ac 8d81 3f00 0080 3f00 0080 3f00 0080
000003e0: 3f00 0000 3f00 0080 adf6 ac3d 0af8 ac3d
000003f0: f9ef 7e3d 27f8 ac3d 5ef6 ac3d 3f00 0080
0.08446755 0.084470175 0.06223906 0.08447037 0.08446698 8.8e-44 0.057859637 0.08446986
0.08446752 8.8e-44 0.08442754 0.084430166 0.062235676 0.08443027 0.08442694 8.8e-44
0.05785935 0.084429756 0.08442754 8.8e-44 0.084433496 0.08443607 0.062237058 0.08443639
0.084432855 8.8e-44 0.05786034 0.084435806 0.08443348 -8.8e-44 0.08444977 0.08445241
0.062189784 0.084452614 0.08444919 -8.8e-44 0.057809886 0.0844521 0.08444981 -8.8e-44
-8.8e-44 -8.8e-44 -8.8e-44 -8.8e-44 8.8e-44 8.8e-44 -8.8e-44 8.8e-44
-8.8e-44 -8.8e-44 0.08443043 0.08443312 0.062236477 0.084433384 0.084429905 8.8e-44
0.05785982 0.08443286 0.08443055 -8.8e-44 0.08447313 0.0844757 0.062227882 0.08447594
0.08447243 -8.8e-44 0.057847552 0.08447532 0.084473126 -8.8e-44 8.8e-44 -8.8e-44
-8.8e-44 8.8e-44 8.8e-44 8.8e-44 8.8e-44 8.8e-44 8.8e-44 8.8e-44
0.084410235 0.084412865 0.06214716 0.08441302 0.084409624 8.8e-44 0.05776874 0.08441257
0.08441022 -8.8e-44 0.084436774 0.08443947 0.062174942 0.08443965 0.08443626 8.8e-44
0.057795472 0.08443912 0.084436856 8.8e-44 0.084420525 0.08442307 0.062233772 0.08442329
0.08441986 -8.8e-44 0.057857852 0.08442276 0.08442033 8.8e-44 -5.204287e-38 -5.204287e-38
-5.204287e-38 -5.204287e-38 -5.204287e-38 -8.8e-44 -5.204287e-38 -5.204287e-38 -5.204287e-38 -8.8e-44
0.08447327 0.08447586 0.062231176 0.084476046 0.084472746 -8.8e-44 0.05785106 0.08447561
0.08447331 -8.8e-44 0.08444679 0.08444944 0.062239684 0.084449664 0.08444621 -8.8e-44
0.057861947 0.08444915 0.08444679 8.8e-44 0.084473155 0.08447574 0.062232316 0.08447596
0.084472544 8.8e-44 0.05785223 0.08447544 0.08447318 -8.8e-44 -8.8e-44 -8.8e-44
-8.8e-44 -8.8e-44 -8.8e-44 -8.8e-44 -8.8e-44 -8.8e-44 -8.8e-44 -8.8e-44
-8.8e-44 -8.8e-44 -8.8e-44 -8.8e-44 8.8e-44 -8.8e-44 8.8e-44 8.8e-44
-8.8e-44 -8.8e-44 8.8e-44 -8.8e-44 -8.8e-44 -8.8e-44 8.8e-44 8.8e-44
-8.8e-44 8.8e-44 8.8e-44 8.8e-44 0.08440514 0.08440779 0.062229075 0.08440812
0.08440457 -8.8e-44 0.057854205 0.084407516 0.08440515 8.8e-44 -8.8e-44 8.8e-44
8.8e-44 8.8e-44 -8.8e-44 8.8e-44 -8.8e-44 8.8e-44 8.8e-44 8.8e-44
-5.204287e-38 -5.204287e-38 -5.204287e-38 -5.204287e-38 -5.204287e-38 -8.8e-44 -5.204287e-38 -5.204287e-38
-5.204287e-38 8.8e-44 0.08446134 0.08446398 0.062240425 0.08446416 0.08446072 8.8e-44
0.05786161 0.084463574 0.08446138 -8.8e-44 0.084412456 0.08441512 0.062231354 0.084415264
0.08441193 8.8e-44 0.057856016 0.08441486 0.08441251 -8.8e-44 -8.8e-44 -8.8e-44
-8.8e-44 8.8e-44 8.8e-44 -8.8e-44 8.8e-44 -8.8e-44 8.8e-44 8.8e-44
-5.204287e-38 -5.204287e-38 -5.204287e-38 -8.8e-44 -5.204287e-38 -8.8e-44 -8.8e-44 -8.8e-44
8.8e-44 -8.8e-44 0.08445487 0.08445747 0.062240575 0.08445769 0.08445428 -8.8e-44

fc2.bias f4 [30]
00000000: bbdf d03f 385c 0440 ea2a 0140 c551 873f
00000010: 800c 2ebc 11c9 0240 7b55 b13f 8355 91be
00000020: 5454 593f 04a9 793f dcec 0740 4cfc 99bd
00000030: 11cd b73f 47a2 f23f 985f ba3f 5f93 2cbe
00000040: 201d 2ebd 5efe 97be a62a 0f40 c45f b5bd
00000050: e106 f2bd c95d dd3f 81be 0b40 3a41 25be
00000060: 37a4 05be 1ac9 e73f e164 f13f db23 943f
00000070: 0008 0b40 6788 653f
1.6318277 2.0681286 2.0182443 1.0571829 -0.010623097 2.0435221 1.3854212 -0.28385553
0.848943 0.9752352 2.1238317 -0.07518825 1.4359456 1.8955773 1.4560423 -0.16853093
-0.042508245 -0.29686254 2.236978 -0.088561565 -0.11817718 1.7294246 2.1835024 -0.16138163
-0.13050924 1.8108246 1.8858911 1.1573442 2.1723633 0.8966126

fc3.weight f4 [12, 30]
00000000: 734b 75bd b9bd 49bd b308 4ebd d632 a6bd
00000010: 4500 0000 e2d6 4bbd 7cb6 8abd 4500 0000
00000020: 4869 bcbd d86e aebd 6e1f 45bd 0259 0a82
00000030: 7f24 87bd e246 59bd e6c3 85bd 4500 0000
00000040: 4500 0000 4500 0080 7e46 3cbd 4500 0080
00000050: 0259 0a82 5d40 6abd 125f 40bd 4500 0080
00000060: 4500 0000 8caa 61bd 7b35 5abd 5df0 9cbd
00000070: 5b3e 41bd 34f1 b6bd 6d4e 903d cda4 773d
00000080: 17b5 7b3d 7673 b83d 4500 0080 84a1 793d
00000090: 133d 9f3d 4500 0000 a88a cc3d 50ed bf3d
000000a0: 0844 733d 0259 0a02 f1ee 9b3d 6129 833d
000000b0: e8a7 9a3d 4500 0080 4500 0080 4500 0080
000000c0: 27dc 6a3d 4500 0080 0259 0a02 c123 8b3d
000000d0: 1ec1 6e3d 4500 0080 0259 0a02 271c 873d
000000e0: e899 833d b300 b03d 4a95 6f3d ff9d c73d
000000f0: 355b 903d e4bd 773d 41ce 7b3d 7a80 b83d
00000100: 4500 0080 98ba 793d f849 9f3d 4500 0080
00000110: bd97 cc3d 53fa bf3d 135d 733d 0259 0a02
00000120: bffb 9b3d 0036 833d b9b4 9a3d 4500 0080
00000130: 4500 0000 4500 0080 1cf5 6a3d 4500 0000
00000140: 0259 0a02 6930 8b3d 14da 6e3d 4500 0080
00000150: 0259 0a02 d528 873d 7ca6 833d a00d b03d
00000160: 33ae 6f3d 0cab c73d cd5b 903d 2bbf 773d
00000170: 74cf 7b3d 1881 b83d 4500 0080 d6bb 793d
00000180: 9e4a 9f3d 4500 0080 5d98 cc3d 09fb bf3d
00000190: 615e 733d 0259 0a02 62fc 9b3d ae36 833d
000001a0: 59b5 9a3d 4500 0000 4500 0000 4500 0000
000001b0: 5af6 6a3d 4500 0000 0259 0a02 1731 8b3d
000001c0: 63db 6e3d 4500 0080 0259 0a02 7829 873d
000001d0: 18a7 833d 4d0e b03d 6caf 6f3d acab c73d
000001e0: 7858 903d 9cb8 773d 01c9 7b3d c67d b83d
000001f0: 4500 0080 57b5 793d 4847 9f3d 4500 0080
00000200: 0795 cc3d a2f7 bf3d d857 733d 0259 0a02
00000210: 0ff9 9b3d 6a33 833d 01b2 9a3d 4500 0080
00000220: 4500 0000 4500 0000 edef 6a3d 4500 0000
00000230: 0259 0a02 c42d 8b3d e4d4 6e3d 4500 0000
00000240: 0259 0a02 2f26 873d cda3 833d fc0a b03d
00000250: 0ea9 6f3d 62a8 c73d 1856 903d d7b3 773d
00000260: 3ec4 7b3d 527b b83d 4500 0000 8db0 793d
00000270: d744 9f3d 4500 0000 9892 cc3d 36f5 bf3d
00000280: 2353 733d 0259 0a02 a6f6 9b3d fd30 833d
00000290: aaaf 9a3d 4500 0000 4500 0000 4500 0000
000002a0: 18eb 6a3d 4500 0000 0259 0a02 662b 8b3d
000002b0: 20d0 6e3d 4500 0080 4500 0080 c823 873d
000002c0: 6ba1 833d 8d08 b03d 4fa4 6f3d eba5 c73d
000002d0: 0259 0a82 0259 0a82 0259 0a82 0259 0a82
000002e0: 4500 0000 0259 0a82 0259 0a82 4500 0000
000002f0: 0259 0a82 0259 0a82 0259 0a82 0259 0a82
00000300: 0259 0a82 0259 0a82 0259 0a82 4500 0080
00000310: 4500 0000 4500 0000 4500 0000 4500 0080
00000320: 0259 0a82 0259 0a82 0259 0a82 4500 0080
00000330: 0259 0a82 0259 0a82 0259 0a82 0259 0a82
00000340: 0259 0a82 0259 0a82 b15a 903d e2bc 773d
00000350: 4ecd 7b3d e97f b83d 4500 0080 93b9 793d
00000360: 7249 9f3d 4500 0000 3397 cc3d d2f9 bf3d
00000370: 125c 733d 0259 0a02 3efb 9b3d 8b35 833d
00000380: 39b4 9a3d 4500 0000 4500 0000 4500 0080
00000390: 1cf4 6a3d 4500 0080 0259 0a02 ea2f 8b3d
000003a0: 21d9 6e3d 4500 0000 0259 0a02 5028 873d
000003b0: f5a5 833d 280d b03d 31ad 6f3d 80aa c73d
000003c0: b43f 73bd 8e9a 47bd 94e7 4bbd 3e4d a5bd
000003d0: 4500 0000 b0b4 49bd 34bb 89bd 4500 0000
000003e0: 5b98 bbbd a690 adbd 3dfa 42bd 0259 0a82
000003f0: c626 86bd 542b 57bd 2ac5 84bd 4500 0000
-0.059886407 -0.0492532 -0.050301265 -0.08115165 9.7e-44 -0.049765475 -0.067730874 9.7e-44
-0.09199768 -0.085172355 -0.048125677 -1.0164183e-37 -0.06598758 -0.053046115 -0.06531505 9.7e-44
9.7e-44 -9.7e-44 -0.045965664 -9.7e-44 -1.0164183e-37 -0.057190288 -0.046965666 -9.7e-44
9.7e-44 -0.055094287 -0.05327366 -0.07663033 -0.047178607 -0.089327246 0.070462085 0.0604599
0.061451998 0.090063974 -9.7e-44 0.06094505 0.07775321 9.7e-44 0.09987384 0.09371436
0.05939105 1.0164183e-37 0.07613934 0.06404377 0.07551557 -9.7e-44 -9.7e-44 -9.7e-44
0.05733886 -9.7e-44 1.0164183e-37 0.06793929 0.05828964 -9.7e-44 1.0164183e-37 0.065971665
0.0642584 0.08593883 0.058491983 0.09746932 0.07048646 0.06048383 0.061475996 0.0900888
-9.7e-44 0.060968965 0.0777778 -9.7e-44 0.09989879 0.093739174 0.059414934 1.0164183e-37
0.07616376 0.06406784 0.07554001 -9.7e-44 9.7e-44 -9.7e-44 0.05736266 9.7e-44
1.0164183e-37 0.06796343 0.058313444 -9.7e-44 1.0164183e-37 0.06599585 0.06428239 0.08596349
0.05851574 0.097494215 0.070487596 0.060485046 0.06147714 0.09008998 -9.7e-44 0.06097015
0.07777904 -9.7e-44 0.099899985 0.09374053 0.05941618 1.0164183e-37 0.076164976 0.06406914
0.075541206 9.7e-44 9.7e-44 9.7e-44 0.057363845 9.7e-44 1.0164183e-37 0.067964725
0.058314692 -9.7e-44 1.0164183e-37 0.065997064 0.06428355 0.08596478 0.058516905 0.09749541
0.07048124 0.06047879 0.06147099 0.090083644 -9.7e-44 0.060963955 0.07777268 -9.7e-44
0.09989362 0.09373404 0.059409946 1.0164183e-37 0.076158635 0.06406291 0.07553483 -9.7e-44
9.7e-44 9.7e-44 0.057357717 9.7e-44 1.0164183e-37 0.067958385 0.058308497 9.7e-44
1.0164183e-37 0.0659908 0.06427727 0.08595845 0.058510832 0.09748913 0.07047671 0.060474243
0.061466448 0.090078965 9.7e-44 0.060959388 0.07776802 9.7e-44 0.09988898 0.09372942
0.059405457 1.0164183e-37 0.07615404 0.06405828 0.075530365 9.7e-44 9.7e-44 9.7e-44
0.05735311 9.7e-44 1.0164183e-37 0.06795387 0.058303952 -9.7e-44 -9.7e-44 0.065986216
0.064272724 0.08595381 0.058506306 0.09748443 -1.0164183e-37 -1.0164183e-37 -1.0164183e-37 -1.0164183e-37
9.7e-44 -1.0164183e-37 -1.0164183e-37 9.7e-44 -1.0164183e-37 -1.0164183e-37 -1.0164183e-37 -1.0164183e-37
-1.0164183e-37 -1.0164183e-37 -1.0164183e-37 -9.7e-44 9.7e-44 9.7e-44 9.7e-44 -9.7e-44
-1.0164183e-37 -1.0164183e-37 -1.0164183e-37 -9.7e-44 -1.0164183e-37 -1.0164183e-37 -1.0164183e-37 -1.0164183e-37
-1.0164183e-37 -1.0164183e-37 0.07048548 0.060482867 0.06147509 0.09008772 -9.7e-44 0.060967993
0.077776805 9.7e-44 0.099897765 0.09373821 0.059413977 1.0164183e-37 0.0761628 0.06406697
0.07553906 9.7e-44 9.7e-44 -9.7e-44 0.057361707 -9.7e-44 1.0164183e-37 0.06796248
0.05831254 9.7e-44 1.0164183e-37 0.06599486 0.06428138 0.08596259 0.058514778 0.09749317
-0.059386924 -0.04873138 -0.049781397 -0.080713734 9.7e-44 -0.049244583 -0.06725159 9.7e-44
-0.09159919 -0.08474855 -0.047601927 -1.0164183e-37 -0.06550364 -0.052531555 -0.064829186 9.7e-44

fc3.bias f4 [12]
00000000: eb82 3840 fecf 6440 8622 4240 2d5d 4040
00000010: b680 4940 ef0c 5040 5d21 c3bb b17f 4340
00000020: 81f8 3640 a9c6 5240 e457 3840 5ede f8bd
2.8829906 3.5751948 3.0333571 3.005687 3.148481 3.2507894 -0.005954905 3.0546687
2.8589175 3.2933753 2.8803644 -0.12151788

fc4.weight f4 [2, 12]
00000000: 4938 093f 0b05 08be d4a8 11be 7232 12be
00000010: 4c79 0fbe ae98 0dbe 9c09 f31a af3f 11be
00000020: dc4e 093f 18d5 0cbe 653d 093f 43ce fe1a
00000030: 1b19 b73c 7b9f 5fbb 89b2 72bb 7ac5 73bb
00000040: a857 6ebb b89d 6abb f5f6 001b c3e0 71bb
00000050: 4a44 b73c 7a1a 69bb a729 b73c 90b3 829b
0.5360151 -0.13283174 -0.14224559 -0.14277056 -0.14011115 -0.13827774 1.0051797e-22 -0.1418445
0.53635955 -0.13753164 0.53609306 1.0538517e-22 0.022350838 -0.0034122157 -0.0037032685 -0.0037196563
-0.0036368165 -0.0035799574 1.0667708e-22 -0.003690765 0.02237143 -0.003556876 0.022358729 -2.1622735e-22

fc4.bias f4 [2]
00000000: 5a51 43c0 40cf 613e
-3.0518403 0.22051716

exp_avg f4 [10, 6]
00000000: 8369 2ebd 8fa3 afbb 321a a739 6621 4abb
00000010: a1a1 be3c b312 423e d62f 2cbd ce5c b1bb
00000020: dc79 b239 e0b8 48bb b9cf b93c 8cdf 3e3e
00000030: d576 1dbd 16b1 49bb 7724 6b39 177c 9dbb
00000040: 6c5d 1c3c f28d 113e 9d2a 2cbd f05c b1bb
00000050: e6a5 b239 18b9 48bb 20c5 b93c 69d6 3e3e
00000060: 3469 2ebd 3fa3 afbb e619 a739 0921 4abb
00000070: 4aa1 be3c 5a12 423e 0000 0000 0000 0000
00000080: 0000 0000 0000 0000 0000 0000 0000 0000
00000090: cd99 12bd 7182 3bbb f296 5a39 8b9d 92bb
000000a0: 8783 113c ed84 073e a534 2cbd ab5c b1bb
000000b0: 1d64 b239 32b8 48bb 81d9 b93c 04e8 3e3e
000000c0: d29f 2ebd 8ea3 afbb 8c54 a639 ef21 4abb
000000d0: 4a0e bf3c a270 423e 0000 0000 0000 0000
000000e0: 0000 0000 0000 0000 0000 0000 0000 0000
-0.042581093 -0.005360074 0.0003187224 -0.003084266 0.02327043 0.18952446 -0.042037807 -0.0054126745
0.00034041598 -0.0030627772 0.022682058 0.18639964 -0.038443405 -0.0030775717 0.0002242493 -0.0048060524
0.009543758 0.14214304 -0.042032827 -0.0054126903 0.0003407441 -0.0030627903 0.022677004 0.18636478
-0.0425808 -0.0053600366 0.00031872018 -0.0030842444 0.023270268 0.18952313 0.0 0.0
0.0 0.0 0.0 0.0 -0.035791207 -0.0028611685 0.00020846332 -0.004474347
0.008881456 0.13234301 -0.042042393 -0.005412658 0.00034025396 -0.0030627367 0.022686722 0.18643194
-0.042632885 -0.0053600734 0.0003172498 -0.003084298 0.023322243 0.18988279 0.0 0.0
0.0 0.0 0.0 0.0

exp_avg_sq f4 [10, 6]
00000000: 30c6 073b 9cf3 9839 0a36 4936 9ee0 1a38
00000010: 476e 813a 38ff 463d 5eba 073b 5be6 9839
00000020: c831 4936 32d6 1a38 6b69 813a 7402 473d
00000030: 4c9c d73a 19c1 9439 281e 0e36 7a00 8c38
00000040: 964d 883b 27e5 293d d5bb 073b 8ce4 9839
00000050: 8029 4936 6fd4 1a38 445f 813a 820a 473d
00000060: 29c6 073b 51f3 9839 7735 4936 42e0 1a38
00000070: 386d 813a 80fe 463d 0000 0000 0000 0000
00000080: 0000 0000 0000 0000 0000 0000 0000 0000
00000090: 4dde ba3a d7dd 8039 983c f635 5396 7238
000000a0: 8438 6c3b 1345 133d 8ebb 073b 78e4 9839
000000b0: 2133 4936 7dd4 1a38 865b 813a ad05 473d
000000c0: 61c7 073b 69f3 9839 422c 4936 e0e0 1a38
000000d0: ae6f 813a 9202 473d 0000 0000 0000 0000
000000e0: 0000 0000 0000 0000 0000 0000 0000 0000
0.0020717494 0.00029173202 2.998279e-06 3.6925652e-05 0.0009874784 0.04858324 0.0020710449 0.00029163327
2.998031e-06 3.6915946e-05 0.0009873336 0.048586324 0.0016449778 0.0002837263 2.1177202e-06 6.675809e-05
0.0041596396 0.041478302 0.0020711322 0.0002916198 2.997549e-06 3.6914305e-05 0.000987031 0.048594005
0.0020717478 0.00029172984 2.9982455e-06 3.6925318e-05 0.0009874469 0.048582554 0.0 0.0
0.0 0.0 0.0 0.0 0.0014256925 0.00024579346 1.8346063e-06 5.7837296e-05
0.0036044428 0.035954546 0.0020711157 0.00029161922 2.9981095e-06 3.6914356e-05 0.0009869195 0.048589397
0.0020718204 0.00029173054 2.9977095e-06 3.6925892e-05 0.0009875202 0.048586436 0.0 0.0
0.0 0.0 0.0 0.0

exp_avg f4 [10]
00000000: 0a88 be3b 7c42 b03b 98da d53b 871b b03b
00000010: b787 be3b 0000 0000 5e25 c73b cb66 b03b
00000020: 4212 c03b 0000 0000
0.005814557 0.0053790193 0.0065263025 0.0053743753 0.0058145183 0.0 0.0060774526 0.0053833476
0.0058615515 0.0

exp_avg_sq f4 [10]
00000000: 60f8 4f3a 35de 4f3a 9fcb 283a 7ee7 4f3a
00000010: 85f6 4f3a 0000 0000 bd3b 123a a5dc 4f3a
00000020: ddfd 4f3a 0000 0000
0.0007933434 0.0007929535 0.00064390333 0.00079309184 0.00079331576 0.0 0.00055783597 0.0007929302
0.0007934252 0.0

exp_avg f4 [30, 10]
00000000: 1771 b7bc 6886 b7bc 7acd 47bc cf83 b7bc
00000010: c470 b7bc 0000 0000 f7c9 3cbc 5987 b7bc
00000020: cc6d b7bc 0000 0000 ec04 9abc cf16 9abc
00000030: a2d3 27bc a014 9abc a604 9abc 0000 0000
00000040: 9f96 1ebc 9817 9abc 2802 9abc 0000 0000
00000050: 29ed 9cbc 64ff 9cbc 86fc 2abc 2afd 9cbc
00000060: e3ec 9cbc 0000 0000 9c92 21bc 3100 9dbc
00000070: 57ea 9cbc 0000 0000 91d2 f1bc b6ee f1bc
00000080: 319e 83bc 49eb f1bc 28d2 f1bc 0000 0000
00000090: 8eb2 78bc f3ef f1bc 38ce f1bc 0000 0000
000000a0: 0000 0000 0000 0000 0000 0000 0000 0000
000000b0: 0000 0000 0000 0000 0000 0000 0000 0000
000000c0: 0000 0000 0000 0000 bd70 9bbc cd82 9bbc
000000d0: 105f 29bc 9880 9bbc 7970 9bbc 0000 0000
000000e0: 190c 20bc 9783 9bbc f46d 9bbc 0000 0000
000000f0: 1c0c cdbc f523 cdbc b547 5fbc 0d21 cdbc
00000100: c10b cdbc 0000 0000 56f6 52bc 0125 cdbc
00000110: 6d08 cdbc 0000 0000 0000 0000 0000 0000
00000120: 0000 0000 0000 0000 0000 0000 0000 0000
00000130: 0000 0000 0000 0000 0000 0000 0000 0000
00000140: a3b0 07bd 6dc0 07bd 27ac 93bc 81be 07bd
00000150: 65b0 07bd 0000 0000 b582 8bbc 20c1 07bd
00000160: 33ae 07bd 0000 0000 cccb fcbc 38e9 fcbc
00000170: 1f94 89bc a6e5 fcbc 5ccb fcbc 0000 0000
00000180: 5efa 81bc 84ea fcbc 41c7 fcbc 0000 0000
00000190: dce3 96bc 60f5 96bc fb6c 24bc 3ef3 96bc
000001a0: 97e3 96bc 0000 0000 4860 1bbc 26f6 96bc
000001b0: 25e1 96bc 0000 0000 0400 0000 0400 0000
000001c0: 0400 0000 0400 0000 0400 0000 0000 0000
000001d0: 0400 0000 0400 0000 0400 0000 0000 0000
000001e0: d540 c8bc 2058 c8bc 2912 5abc 4a55 c8bc
000001f0: 7e40 c8bc 0000 0000 e10a 4ebc 2759 c8bc
00000200: 3d3d c8bc 0000 0000 5e88 a4bc 7b9b a4bc
00000210: cf40 33bc 2899 a4bc 1588 a4bc 0000 0000
00000220: 6961 29bc 539c a4bc 6985 a4bc 0000 0000
00000230: ff66 c6bc 117e c6bc 470f 58bc 417b c6bc
00000240: a566 c6bc 0000 0000 9824 4cbc 147f c6bc
00000250: 6f63 c6bc 0000 0000 0000 0000 0000 0000
00000260: 0000 0000 0000 0000 0000 0000 0000 0000
00000270: 0000 0000 0000 0000 0000 0000 0000 0000
00000280: 0000 0000 0000 0000 0000 0000 0000 0000
00000290: 0000 0000 0000 0000 0000 0000 0000 0000
000002a0: 0000 0000 0000 0000 0000 0000 0000 0000
000002b0: 0000 0000 0000 0000 0000 0000 0000 0000
000002c0: 0000 0000 0000 0000 0000 0000 0000 0000
000002d0: d8e3 90bc abf4 90bc 78e7 1dbc 9df2 90bc
000002e0: 95e3 90bc 0000 0000 7037 15bc 67f5 90bc
000002f0: 3ce1 90bc 0000 0000 0000 0000 0000 0000
00000300: 0000 0000 0000 0000 0000 0000 0000 0000
00000310: 0000 0000 0000 0000 0000 0000 0000 0000
00000320: 0400 0000 0400 0000 0400 0000 0400 0000
00000330: 0400 0000 0000 0000 0400 0000 0400 0000
00000340: 0400 0000 0000 0000 23ff afbc 9813 b0bc
00000350: 40b6 3fbc 1b11 b0bc d7fe afbc 0000 0000
00000360: c325 35bc 7f14 b0bc fdfb afbc 0000 0000
00000370: 23ab 93bc 47bc 93bc 98ec 20bc 31ba 93bc
00000380: e1aa 93bc 0000 0000 a711 18bc 0abd 93bc
00000390: 7ca8 93bc 0000 0000 0000 0000 0000 0000
000003a0: 0000 0000 0000 0000 0000 0000 0000 0000
000003b0: 0000 0000 0000 0000 0000 0000 0000 0000
000003c0: 0400 0000 0400 0000 0400 0000 0000 0000
000003d0: 0400 0000 0000 0000 0000 0000 0000 0000
000003e0: 0000 0000 0000 0000 9633 aabc 5e47 aabc
000003f0: fb69 39bc f444 aabc 4a33 aabc 0000 0000
-0.022392793 -0.022402957 -0.0121949855 -0.022401718 -0.022392638 0.0 -0.011522762 -0.022403406
-0.022391222 0.0 -0.018801175 -0.018809704 -0.010243328 -0.018808663 -0.018801045 0.0
-0.009679466 -0.018810079 -0.018799856 0.0 -0.019156056 -0.019164748 -0.010436183 -0.019163687
-0.019155925 0.0 -0.009861615 -0.01916513 -0.01915471 0.0 -0.029519351 -0.029532772
-0.016066642 -0.029531138 -0.029519156 0.0 -0.0151792895 -0.029533362 -0.029517278 0.0
0.0 0.0 0.0 0.0 0.0 0.0 0.0 0.0
0.0 0.0 -0.018974656 -0.01898327 -0.010337606 -0.018982217 -0.01897453 0.0
-0.009768509 -0.018983645 -0.018973328 0.0 -0.025030188 -0.02504156 -0.013627936 -0.025040174
-0.025030019 0.0 -0.012876114 -0.025042059 -0.025028432 0.0 0.0 0.0
0.0 0.0 0.0 0.0 0.0 0.0 0.0 0.0
-0.03312744 -0.033142496 -0.018026425 -0.033140663 -0.033127207 0.0 -0.0170301 -0.033143163
-0.033125114 0.0 -0.030858897 -0.030872926 -0.016794262 -0.030871224 -0.030858688 0.0
-0.015866455 -0.030873545 -0.03085673 0.0 -0.018419199 -0.01842755 -0.010035749 -0.018426534
-0.01841907 0.0 -0.009483404 -0.01842792 -0.018417904 0.0 6e-45 6e-45
6e-45 6e-45 6e-45 0.0 6e-45 6e-45 6e-45 0.0
-0.024444977 -0.024456084 -0.013309994 -0.024454731 -0.024444815 0.0 -0.012575836 -0.024456574
-0.024443263 0.0 -0.020084556 -0.02009367 -0.010940745 -0.020092562 -0.02008442 0.0
-0.010338166 -0.020094072 -0.020083146 0.0 -0.024219034 -0.024230035 -0.013187236 -0.024228694
-0.024218867 0.0 -0.0124598965 -0.024230517 -0.024217336 0.0 0.0 0.0
0.0 0.0 0.0 0.0 0.0 0.0 0.0 0.0
0.0 0.0 0.0 0.0 0.0 0.0 0.0 0.0
0.0 0.0 0.0 0.0 0.0 0.0 0.0 0.0
0.0 0.0 0.0 0.0 -0.01768677 -0.017694792 -0.009637706 -0.017693812
-0.017686645 0.0 -0.009107456 -0.017695142 -0.017685525 0.0 0.0 0.0
0.0 0.0 0.0 0.0 0.0 0.0 0.0 0.0
6e-45 6e-45 6e-45 6e-45 6e-45 0.0 6e-45 6e-45
6e-45 0.0 -0.021483963 -0.021493718 -0.011701167 -0.021492532 -0.021483822 0.0
-0.011056366 -0.021494148 -0.021482462 0.0 -0.01802594 -0.018034114 -0.009822033 -0.018033119
-0.018025817 0.0 -0.009281552 -0.018034477 -0.018024676 0.0 0.0 0.0
0.0 0.0 0.0 0.0 0.0 0.0 0.0 0.0
6e-45 6e-45 6e-45 0.0 6e-45 0.0 0.0 0.0
0.0 0.0 -0.020776551 -0.020785984 -0.011316772 -0.020784833 -0.02077641 0.0

exp_avg_sq f4 [30, 10]
00000000: 2755 5f3a 7655 5f3a dd0a 393a b153 5f3a
00000010: f454 5f3a 0000 0000 187d 553a cf53 5f3a
00000020: 7756 5f3a 0000 0000 03d2 1d3a 3fd2 1d3a
00000030: 6db2 023a 0bd1 1d3a e1d1 1d3a 0000 0000
00000040: 63c7 163a 1ed1 1d3a ecd2 1d3a 0000 0000
00000050: 09c8 233a 5bc8 233a 33a4 073a e2c6 233a
00000060: f3c7 233a 0000 0000 097c 1c3a 08c7 233a
00000070: ffc8 233a 0000 0000 1cdd c13a 69dd c13a
00000080: 03bb a03a d4db c13a e9dc c13a 0000 0000
00000090: 3374 b93a e8db c13a 33de c13a 0000 0000
000000a0: 0000 0000 0000 0000 0000 0000 0000 0000
000000b0: 0000 0000 0000 0000 0000 0000 0000 0000
000000c0: 0000 0000 0000 0000 7fb8 203a b1b8 203a
000000d0: 261a 053a 61b7 203a 56b8 203a 0000 0000
000000e0: 0f8e 193a 75b7 203a 66b9 203a 0000 0000
000000f0: 3f67 8b3a 7f67 8b3a f111 673a 4766 8b3a
00000100: 2567 8b3a 0000 0000 fc4c 853a 6c66 8b3a
00000110: 0768 8b3a 0000 0000 0000 0000 0000 0000
00000120: 0000 0000 0000 0000 0000 0000 0000 0000
00000130: 0000 0000 0000 0000 0000 0000 0000 0000
00000140: bd52 f43a 1f53 f43a d49c ca3a 2851 f43a
00000150: 9252 f43a 0000 0000 f4c8 e93a 4d51 f43a
00000160: 3554 f43a 0000 0000 e9e5 d33a 30e6 d33a
00000170: c6b2 af3a 70e4 d33a ade5 d33a 0000 0000
00000180: fcb9 ca3a 99e4 d33a 12e7 d33a 0000 0000
00000190: 8687 173a c087 173a 2ff5 fa39 8386 173a
000001a0: 7087 173a 0000 0000 31c2 103a a186 173a
000001b0: 7a88 173a 0000 0000 ad46 d711 0c25 1013
000001c0: cb3a 1b0e 8c9d e911 461d 8912 0000 0000
000001d0: fc4e 6111 573e c10b c7e5 cc0c 0000 0000
000001e0: 57fa 843a 99fa 843a 4e68 5c3a 8bf9 843a
000001f0: 39fa 843a 0000 0000 f14b 7e3a 96f9 843a
00000200: 14fb 843a 0000 0000 81e8 333a bfe8 333a
00000210: 9a04 153a 3ee7 333a 5be8 333a 0000 0000
00000220: 79eb 2b3a 5ee7 333a 79e9 333a 0000 0000
00000230: d989 823a 148a 823a 085c 583a 0c89 823a
00000240: c689 823a 0000 0000 20a0 793a 1b89 823a
00000250: a28a 823a 0000 0000 0000 0000 0000 0000
00000260: 0000 0000 0000 0000 0000 0000 0000 0000
00000270: 0000 0000 0000 0000 0000 0000 0000 0000
00000280: 0000 0000 0000 0000 0000 0000 0000 0000
00000290: 0000 0000 0000 0000 0000 0000 0000 0000
000002a0: 0000 0000 0000 0000 0000 0000 0000 0000
000002b0: 0000 0000 0000 0000 0000 0000 0000 0000
000002c0: 0000 0000 0000 0000 0000 0000 0000 0000
000002d0: 2cd4 0b3a 6ad4 0b3a a98c e739 22d3 0b3a
000002e0: 0dd4 0b3a 0000 0000 a28f 053a 3bd3 0b3a
000002f0: 02d5 0b3a 0000 0000 0000 0000 0000 0000
00000300: 0000 0000 0000 0000 0000 0000 0000 0000
00000310: 0000 0000 0000 0000 0000 0000 0000 0000
00000320: c698 4911 0489 8112 24d1 830d 5dcf 5611
00000330: 0531 fc11 0000 0000 7b84 cc10 6011 c70a
00000340: c006 260d 0000 0000 92aa 4d3a ebaa 4d3a
00000350: c562 2a3a 42a9 4d3a 61aa 4d3a 0000 0000
00000360: 7293 443a 5fa9 4d3a baab 4d3a 0000 0000
00000370: 2c30 113a 6230 113a 7c70 f039 362f 113a
00000380: 0030 113a 0000 0000 92b0 0a3a 3e2f 113a
00000390: fd30 113a 0000 0000 0000 0000 0000 0000
000003a0: 0000 0000 0000 0000 0000 0000 0000 0000
000003b0: 0000 0000 0000 0000 0000 0000 0000 0000
000003c0: a2b7 9705 a208 0c07 118c c203 0000 0000
000003d0: 190f bb06 0000 0000 0000 0000 0000 0000
000003e0: 0000 0000 0000 0000 266d 403a 786d 403a
000003f0: 0467 1f3a de6b 403a 016d 403a 0000 0000
0.00085194636 0.00085195096 0.00070588087 0.0008519246 0.0008519434 0.0 0.00081439456 0.00085192634
0.0008519659 0.0 0.0006020369 0.0006020404 0.0004985694 0.00060202245 0.0006020349 0.0
0.0005751757 0.00060202356 0.00060205045 0.0 0.0006247764 0.0006247812 0.0005174309 0.00062475924
0.00062477513 0.0 0.00059694104 0.00062476145 0.00062479073 0.0 0.0014790627 0.0014790717
0.0012262765 0.0014790245 0.0014790568 0.0 0.001414901 0.0014790269 0.0014790952 0.0
0.0 0.0 0.0 0.0 0.0 0.0 0.0 0.0
0.0 0.0 0.00061310077 0.0006131037 0.0005077444 0.0006130841 0.0006130984 0.0
0.0005857655 0.0006130853 0.0006131142 0.0 0.0010635628 0.0010635703 0.0008814624 0.001063534
0.0010635598 0.0 0.0010170038 0.0010635382 0.0010635861 0.0 0.0 0.0
0.0 0.0 0.0 0.0 0.0 0.0 0.0 0.0
0.0018640381 0.0018640495 0.0015458115 0.0018639909 0.001864033 0.0 0.0017836378 0.0018639952
0.0018640818 0.0 0.0016166541 0.0016166624 0.0013404719 0.0016166102 0.0016166471 0.0
0.0015466805 0.001616615 0.0016166887 0.0 0.00057803874 0.0005780421 0.00047866392 0.00057802367
0.00057803746 0.0 0.0005522101 0.0005780254 0.00057805295 0.0 3.3964576e-28 1.819362e-27
1.9133533e-30 3.6858014e-28 8.653132e-28 0.0 1.7773709e-28 7.4434694e-32 3.156947e-31 0.0
0.0010145408 0.0010145485 0.00084078766 0.001014517 0.0010145373 0.0 0.0009700647 0.0010145183
0.0010145628 0.0 0.0006862954 0.000686299 0.00056845846 0.0006862766 0.0006862932 0.0
0.00065582205 0.00068627845 0.0006863098 0.0 0.0009959295 0.0009959363 0.000825346 0.0009959056
0.0009959273 0.0 0.00095224567 0.0009959074 0.0009959529 0.0 0.0 0.0
0.0 0.0 0.0 0.0 0.0 0.0 0.0 0.0
0.0 0.0 0.0 0.0 0.0 0.0 0.0 0.0
0.0 0.0 0.0 0.0 0.0 0.0 0.0 0.0
0.0 0.0 0.0 0.0 0.0005334045 0.00053340814 0.00044164553 0.00053338904
0.0005334027 0.0 0.00050949503 0.0005333905 0.000533417 0.0 0.0 0.0
0.0 0.0 0.0 0.0 0.0 0.0 0.0 0.0
1.5903181e-28 8.1748215e-28 8.123847e-31 1.6945522e-28 3.97888e-28 0.0 8.066793e-29 1.9169539e-32
5.1160824e-31 0.0 0.00078455464 0.0007845598 0.0006499703 0.0007845351 0.0007845518 0.0
0.00074987777 0.00078453677 0.00078457186 0.0 0.0005538489 0.00055385206 0.00045860175 0.0005538346
0.00055384636 0.0 0.0005290593 0.00055383507 0.0005538611 0.0 0.0 0.0
0.0 0.0 0.0 0.0 0.0 0.0 0.0 0.0
1.4267428e-35 1.0534966e-34 1.1434453e-36 0.0 7.0363766e-35 0.0 0.0 0.0
0.0 0.0 0.0007340483 0.0007340531 0.0006080719 0.0007340292 0.00073404616 0.0

exp_avg f4 [30]
00000000: 91b5 a53b a3ff 8a3b 28a3 8d3b 10bd da3b
00000010: 0000 0000 db49 8c3b 7954 b93b 0000 0000
00000020: 7a99 f53b c8b5 e43b 9228 883b 0400 0000
00000030: d5f9 b43b b38a 943b 7d4b b33b 0000 0000
00000040: 0000 0000 0000 0000 82b6 823b 0000 0000
00000050: 0400 0000 0af3 9e3b 0e3c 853b 0000 0000
00000060: 0400 0000 25b0 993b 231d 953b 6581 cf3b
00000070: 7fc5 853b 31ff ee3b
0.005057045 0.0042419 0.0043224283 0.00667537 0.0 0.004281265 0.005655822 0.0
0.0074951025 0.006979678 0.004155227 6e-45 0.0055229464 0.004533136 0.0054716454 0.0
0.0 0.0 0.003989042 0.0 6e-45 0.00485075 0.004065997 0.0
6e-45 0.0046901875 0.0045505925 0.0063325637 0.0040823813 0.007293605

exp_avg_sq f4 [30]
00000000: 1a80 cf39 448b 9239 f816 9839 2643 343a
00000010: 0000 0000 f73d 9539 af90 013a 0000 0000
00000020: 553e 633a 8f0d 453a 28b1 8c39 237d 8c11
00000030: 4a2b f739 db17 a739 c1a0 f239 0000 0000
00000040: 0000 0000 0000 0000 c9ce 8139 0000 0000
00000050: 6ddd e610 7b0f bf39 feca 8639 0000 0000
00000060: 0135 6205 9bbd b239 375e a839 6b43 223a
00000070: dfdd 8739 c02d 573a
0.0003957756 0.0002795105 0.00029008812 0.0006876461 0.0 0.00028465662 0.0004942519 0.0
0.0008668651 0.0007516974 0.00026834873 2.2165227e-28 0.00047143764 0.00031870496 0.00046277608 0.0
0.0 0.0 0.00024758864 0.0 9.1060165e-29 0.00036441893 0.00025709713 0.0
1.0636204e-35 0.00034092073 0.00032113653 0.00061898556 0.00025914513 0.00082084164

exp_avg f4 [12, 30]
00000000: d53d 4b3c c03e 9e3b 1da6 ba3b a215 b73c
00000010: 0000 0000 c841 ac3b 6e9a 883c 0000 0000
00000020: 1e7a d43c 45a9 c23c 510b 7d3b 0400 0000
00000030: 7c6f 813c a53c 003c c02a 7d3c 0000 0000
00000040: 0000 0000 0000 0000 4e48 f83a 0000 0000
00000050: 0400 0000 9d7f 2f3c 2411 393b 0000 0000
00000060: 0000 0000 7c59 183c 51fe 023c 24eb a83c
00000070: 9cc1 453b 85c1 cd3c 9cc3 8ebb 1521 31bb
00000080: bf88 3dbb b6dd d5bb 0000 0000 a83f 37bb
00000090: 234e adbb 0000 0000 cc7f efbb bbf6 dfbb
000000a0: 2646 23bb 0400 0080 5c0c a7bb 0307 5cbb
000000b0: 038f a4bb 0000 0000 0000 0000 0000 0000
000000c0: aa1f 07bb 0000 0000 0400 0080 ada6 82bb
000000d0: de6d 14bb 0000 0000 0400 0080 2416 71bb
000000e0: 576f 5ebb de81 c9bb 3f33 17bb 96a3 e9bb
000000f0: 0bd2 98bb c99e 3dbb bde5 4abb f6eb e4bb
00000100: 0000 0000 8c2b 44bb 4e82 b9bb 0000 0000
00000110: b82d 00bc b7ba efbb 83ca 2ebb 0400 0080
00000120: e8cf b2bb ec88 6bbb be25 b0bb 0000 0000
00000130: 0000 0000 0000 0000 4ca9 10bb 0000 0000
00000140: 0400 0080 16db 8bbb f8e6 1ebb 0000 0000
00000150: 0400 0080 8b09 81bb 8c1c 6ebb a9b1 d7bb
00000160: 42de 21bb be15 fabb 9d61 99bb 2751 3ebb
00000170: 91a4 4bbb eac2 e5bb 0000 0000 02e4 44bb
00000180: 8e30 babb 0000 0000 10a6 00bc d19b f0bb
00000190: f46e 2fbb 0400 0080 df77 b3bb 4e66 6cbb
000001a0: 34cb b0bb 0000 0000 0000 0000 0000 0000
000001b0: 7d31 11bb 0000 0000 0400 0080 835e 8cbb
000001c0: 887c 1fbb 0000 0000 0400 0080 ce82 81bb
000001d0: 65fc 6ebb 367c d8bb 9c76 22bb 8b00 fbbb
000001e0: 578a 96bb c6c9 3abb 11de 47bb 1482 e1bb
000001f0: 0000 0000 873d 41bb f8bd b6bb 0000 0000
00000200: f488 fcbb a527 ecbb 032e 2cbb 0400 0080
00000210: 1925 b0bb cd04 68bb 1485 adbb 0000 0000
00000220: 0000 0000 0000 0000 b47f 0ebb 0000 0000
00000230: 0400 0080 d0c4 89bb 1887 1cbb 0000 0000
00000240: 0400 0080 0739 7ebb a18e 6abb 387a d4bb
00000250: 0a73 1fbb 285b f6bb ee94 94bb fb5a 38bb
00000260: ca43 45bb 6a93 debb 0000 0000 4ab9 3ebb
00000270: 7c5d b4bb 0000 0000 6e40 f9bb 9615 e9bb
00000280: cbef 29bb 0400 0080 91da adbb 9fff 64bb
00000290: 4843 abbb 0000 0000 0000 0000 0000 0000
000002a0: 2ca4 0cbb 0000 0000 0400 0080 e1f9 87bb
000002b0: e97c 1abb 0000 0000 0000 0000 06ea 7abb
000002c0: 0481 67bb e5b6 d1bb 265f 1dbb 3227 f3bb
000002d0: 0400 0000 0400 0000 0400 0000 0400 0000
000002e0: 0000 0000 0400 0000 0400 0000 0000 0000
000002f0: 0400 0000 0400 0000 0400 0000 0400 0000
00000300: 0400 0000 0400 0000 0400 0000 0000 0000
00000310: 0000 0000 0000 0000 0000 0000 0000 0000
00000320: 0400 0000 0400 0000 0400 0000 0000 0000
00000330: 0400 0000 0400 0000 0400 0000 0400 0000
00000340: 0400 0000 0400 0000 5c64 98bb 8d16 3dbb
00000350: f953 4abb c247 e4bb 0000 0000 9d9e 43bb
00000360: 34fd b8bb 0000 0000 93a3 ffbb c20e efbb
00000370: df4c 2ebb 0400 0080 9c4f b2bb c1df 6abb
00000380: 59a7 afbb 0000 0000 0000 0000 0000 0000
00000390: 4741 10bb 0000 0000 0400 0080 b476 8bbb
000003a0: be74 1ebb 0000 0000 0400 0080 e5ac 80bb
000003b0: 9771 6dbb ef16 d7bb e369 21bb 5e62 f9bb
000003c0: f633 463c d21e 923b 18c2 ae3b 6a3d b53c
000003d0: 0000 0000 593f a03b 8a5f 863c 0000 0000
000003e0: 90e0 d23c b9e9 c03c 9245 643b 0400 0000
000003f0: cd4a 7e3c a428 f53b 878a 783c 0000 0000
0.012404879 0.0048292577 0.005696072 0.022349183 0.0 0.005256865 0.0166752 0.0
0.025937136 0.023762355 0.0038611481 6e-45 0.01580023 0.007826959 0.015452087 0.0
0.0 0.0 0.0018942447 0.0 6e-45 0.010711578 0.0028238976 0.0
0.0 0.0092986785 0.007995204 0.020619936 0.0030175215 0.025116691 -0.0043568145 -0.0027027775
-0.0028920618 -0.006526674 0.0 -0.0027961526 -0.0052888556 0.0 -0.0073089357 -0.0068348325
-0.0024913638 -6e-45 -0.005097909 -0.0033573515 -0.005021931 0.0 0.0 0.0
-0.0020618238 0.0 -6e-45 -0.0039871545 -0.0022648494 0.0 -6e-45 -0.0036786878
-0.0033940875 -0.0061495146 -0.0023071317 -0.0071300967 -0.004663711 -0.0028933755 -0.0030959689 -0.0069861365
0.0 -0.0029933183 -0.0056612855 0.0 -0.0078234 -0.0073159593 -0.0026671 -6e-45
-0.0054569133 -0.0035939766 -0.005375593 0.0 0.0 0.0 -0.0022073565 0.0
-6e-45 -0.0042680604 -0.0024246555 0.0 -6e-45 -0.003937905 -0.0036332933 -0.006582458
-0.0024699126 -0.0076319864 -0.004680826 -0.002904007 -0.003107343 -0.007011761 0.0 -0.003004313
-0.0056820577 0.0 -0.007852092 -0.0073427935 -0.0026769014 -6e-45 -0.005476936 -0.003607172
-0.0053953175 0.0 0.0 0.0 -0.0022154741 0.0 -6e-45 -0.0042837276
-0.00243357 0.0 -6e-45 -0.0039523607 -0.0036466357 -0.006606604 -0.0024789935 -0.007659977
-0.004594128 -0.0028501614 -0.0030497352 -0.0068819616 0.0 -0.0029486136 -0.0055768453 0.0
-0.007706756 -0.0072068744 -0.0026272542 -6e-45 -0.005375516 -0.0035403252 -0.005295405 0.0
0.0 0.0 -0.0021743597 0.0 -6e-45 -0.00420437 -0.0023884233 0.0
-6e-45 -0.0038791315 -0.003579058 -0.006484296 -0.0024330043 -0.007518191 -0.0045343554 -0.00281304
-0.003010022 -0.0067924755 0.0 -0.002910214 -0.0055043083 0.0 -0.0076065576 -0.007113169
-0.0025930281 -6e-45 -0.005305596 -0.00349424 -0.0052265264 0.0 0.0 0.0
-0.0021460159 0.0 -6e-45 -0.004149661 -0.0023572987 0.0 0.0 -0.0038286461
-0.0035324702 -0.0063999766 -0.0024013012 -0.007420444 6e-45 6e-45 6e-45 6e-45
0.0 6e-45 6e-45 0.0 6e-45 6e-45 6e-45 6e-45
6e-45 6e-45 6e-45 0.0 0.0 0.0 0.0 0.0
6e-45 6e-45 6e-45 0.0 6e-45 6e-45 6e-45 6e-45
6e-45 6e-45 -0.0046506356 -0.0028852553 -0.0030872806 -0.006966562 0.0 -0.002984918
-0.0056454185 0.0 -0.007801482 -0.0072954604 -0.0026596112 -6e-45 -0.005441619 -0.0035838934
-0.0053605256 0.0 0.0 0.0 -0.0022011565 0.0 -6e-45 -0.004256094
-0.002417847 0.0 -6e-45 -0.0039268606 -0.0036231035 -0.006564013 -0.0024629764 -0.0076106032
0.012097349 0.0044592405 0.0053331964 0.022124011 0.0 0.004890364 0.016402978 0.0
0.025741845 0.023548948 0.0034831506 6e-45 0.015520764 0.0074816514 0.015169746 0.0

exp_avg_sq f4 [12, 30]
00000000: 273d 9c3c e400 de3c c6d2 d53c 7a16 333c
00000010: 0000 0000 8af2 d93c 06bc 793c 0000 0000
00000020: f9ec 0d3c 18c1 233c 2257 e73c e3f2 8006
00000030: f8f5 823c e06e c23c bf6e 853c 0000 0000
00000040: 0000 0000 0000 0000 0ef6 fa3c 0000 0000
00000050: 5222 5608 dcd0 a93c e193 f13c 0000 0000
00000060: 0000 0000 cba3 b53c 3df2 c03c 5514 473c
00000070: e7a5 ef3c 86e8 153c 0918 aa3a 3d63 ef3a
00000080: c3c9 e63a a37b 463a 0000 0000 bd1f eb3a
00000090: f9de 883a 0000 0000 5f95 1e3a 0c0e 363a
000000a0: c332 f93a 3d75 3b0b de55 8f3a 0c62 d23a
000000b0: d5f4 913a 0000 0000 0000 0000 0000 0000
000000c0: 0ee6 063b 0000 0000 173b 5709 a86e b83a
000000d0: 7ef9 013b 0000 0000 0ee5 0100 38e7 c43a
000000e0: 17d1 d03a dbd7 5b3a 1cf6 003b f82d 273a
000000f0: 57ba c23a d306 093b bd1a 043b ab3b 633a
00000100: 0000 0000 1c96 063b e3b1 9c3a 0000 0000
00000110: 148e 353a f86c 503a 6aa4 0e3b 992c 7810
00000120: 6418 a43a 95d9 f03a 8918 a73a 0000 0000
00000130: 0000 0000 0000 0000 d76e 1a3b 0000 0000
00000140: 6650 010e 5f24 d33a c8cb 143b 0000 0000
00000150: 83f9 d600 266b e13a 9e0e ef3a c6af 7b3a
00000160: dca2 133b 6a65 3f3a c426 c43a 4007 0a3b
00000170: fa11 053b 05e5 643a 0000 0000 fe91 073b
00000180: 2cd7 9d3a 0000 0000 03e2 363a 15f3 513a
00000190: 46af 0f3b a35f 250f 944b a53a 579c f23a
000001a0: 5951 a83a 0000 0000 0000 0000 0000 0000
000001b0: d78f 1b3b 0000 0000 6ab4 c80c 88af d43a
000001c0: 2ce2 153b 0000 0000 b8cd 4100 0e11 e33a
000001d0: 06ce f03a e386 7d3a 2fb7 143b b9cb 403a
000001e0: 00ff bc3a 5cfe 043b 5737 003b 238b 5c3a
000001f0: 0000 0000 09a0 023b 0415 983a 0000 0000
00000200: bd35 303a 324a 4a3a ac71 0a3b f4db 2d10
00000210: d643 9f3a c3c2 e93a 572d a23a 0000 0000
00000220: 0000 0000 0000 0000 3ce3 153b 0000 0000
00000230: 8ed9 b40d 49ed cc3a a56a 103b 0000 0000
00000240: 4318 9900 9ec8 da3a 5f05 e83a fe46 743a
00000250: 7b4a 0f3b e8c2 393a fd23 b83a ed93 013b
00000260: 51d8 f93a 7ee0 563a 0000 0000 148a fe3a
00000270: c72c 943a 0000 0000 aaae 2b3a 8b17 453a
00000280: 44e3 063b 35eb 370d 5b2c 9b3a 85c1 e33a
00000290: ae02 9e3a 0000 0000 0000 0000 0000 0000
000002a0: b209 123b 0000 0000 0f39 ad0a a6a9 c73a
000002b0: f8b4 0c3b 0000 0000 0000 0000 d929 d53a
000002c0: 920f e23a 4a00 6e3a 339c 0b3b 03fd 343a
000002d0: 49bf 3713 4ce6 540f 1aa0 1613 1e7b f212
000002e0: 0000 0000 139c 9a12 0184 ec0d 0000 0000
000002f0: cb00 1712 5822 5413 35ea 6f0a 9c9c 800e
00000300: a56d 4711 ed02 6210 5fde 3911 0000 0000
00000310: 0000 0000 0000 0000 0000 0000 0000 0000
00000320: 3313 040c 18df 8512 d370 2d12 0000 0000
00000330: b521 0800 c768 8a08 d2fb f60d 3a72 3f0f
00000340: e638 9c0f cc3e 740f 15a5 c13a d143 083b
00000350: a55e 033b 26f8 613a 0000 0000 89d6 053b
00000360: c5d2 9b3a 0000 0000 918b 343a 2944 4f3a
00000370: 57d9 0d3b 5cf4 730f c02e a33a c182 ef3a
00000380: b22a a63a 0000 0000 0000 0000 0000 0000
00000390: 0693 193b 0000 0000 4383 4c0d cdf7 d13a
000003a0: f1f7 133b 0000 0000 470c 9900 542a e03a
000003b0: 53ba ed3a 7349 7a3a c8d0 123b f254 3e3a
000003c0: 5002 9c3c 09c1 dd3c 7193 d53c b3b4 323c
000003d0: 0000 0000 edb2 d93c c74d 793c 0000 0000
000003e0: 9094 0d3c ec62 233c d316 e73c 2e2c 7b0e
000003f0: fcbd 823c de30 c23c 7236 853c 0000 0000
0.019072128 0.027100034 0.026101481 0.010930652 0.0 0.02660491 0.015242582 0.0
0.008662456 0.009994768 0.02823979 4.850514e-35 0.015986428 0.02373451 0.01628816 0.0
0.0 0.0 0.030634906 0.0 6.4438626e-34 0.020729475 0.02948946 0.0
0.0 0.02217283 0.023553008 0.012150844 0.029253913 0.009149676 0.0012977134 0.0018263828
0.0017607737 0.0007571524 0.0 0.0017938536 0.0010442428 0.0 0.00060494797 0.0006944842
0.001901232 3.610309e-32 0.0010935625 0.0016050949 0.0011135588 0.0 0.0 0.0
0.00205839 0.0 2.5907468e-33 0.0014071064 0.0019832547 0.0 1.74005e-40 0.0015022522
0.0015931454 0.0008386352 0.0019677943 0.00063773943 0.0014856559 0.0020908609 0.0020157539 0.0008668254
0.0 0.002053625 0.001195487 0.0 0.00069257733 0.0007950808 0.002176548 4.8943733e-29
0.0012519476 0.0018375391 0.0012748401 0.0 0.0 0.0 0.00235646 0.0
1.5939188e-30 0.0016108862 0.002270447 0.0 1.9742304e-38 0.001719807 0.0018238609 0.00096010824
0.0022527492 0.00073011837 0.0014965166 0.002106145 0.0020304904 0.00087316363 0.0 0.0020686383
0.0012042276 0.0 0.00069764274 0.00080089393 0.002192454 8.153547e-30 0.0012611025 0.0018509728
0.0012841626 0.0 0.0 0.0 0.0023736858 0.0 3.0923462e-31 0.0016226629
0.0022870405 0.0 6.043105e-39 0.0017323808 0.0018371947 0.0009671284 0.0022692194 0.0007354576
0.0014419258 0.0020293212 0.0019564235 0.0008413067 0.0 0.0019931814 0.0011602943 0.0
0.0006721875 0.00077167444 0.0021124883 3.428768e-29 0.0012150954 0.0017834533 0.0012373131 0.0
0.0 0.0 0.0022871038 0.0 1.1145731e-30 0.0015634681 0.0022036221 0.0
1.4059534e-38 0.0016691869 0.0017701796 0.000931844 0.0021864462 0.0007086233 0.0014048811 0.0019772009
0.001906166 0.0008196904 0.0 0.0019419813 0.0011304849 0.0 0.00065491593 0.0007518462
0.0020582238 5.667435e-31 0.001183878 0.0017376399 0.0012055242 0.0 0.0 0.0
0.002228361 0.0 1.6680757e-32 0.0015233054 0.002147017 0.0 0.0 0.0016263082
0.0017247072 0.00090790226 0.0021302819 0.0006904157 2.3192158e-27 1.04967606e-29 1.9011598e-27 1.5302698e-27
0.0 9.757242e-28 1.4576402e-30 0.0 4.7648176e-28 2.6775095e-27 1.1551481e-32 3.1705246e-30
1.5732119e-28 4.4572895e-29 1.466245e-28 0.0 0.0 0.0 0.0 0.0
1.0174688e-31 8.448477e-28 5.472824e-28 0.0 7.46776e-40 8.330206e-34 1.5221544e-30 9.439026e-30
1.5404704e-29 1.2042223e-29 0.001477393 0.0020792375 0.0020045426 0.0008620046 0.0 0.0020422062
0.0011888376 0.0 0.0006887252 0.000790658 0.0021644437 1.2027887e-29 0.0012449846 0.0018273221
0.0012677519 0.0 0.0 0.0 0.002343358 0.0 6.3020354e-31 0.0016019285
0.0022578205 0.0 1.4055235e-38 0.0017102459 0.0018137194 0.0009547688 0.0022402275 0.00072605826
0.019044071 0.027069585 0.026071282 0.01090734 0.0 0.026574576 0.0152162975 0.0
0.008641377 0.009972315 0.028209126 3.095941e-30 0.015959732 0.023704942 0.016261313 0.0

exp_avg f4 [12]
00000000: 66e4 8dbc 5cba 773b b092 843b 050f 853b
00000010: 3099 823b fbe6 803b 0400 0000 b733 843b
00000020: ee10 8fbc 4636 803b f4a5 8abc 0000 0000
-0.017320823 0.0037800288 0.004045807 0.0040606284 0.0039855465 0.003933785 6e-45 0.004034485
-0.017464127 0.00391272 -0.016924836 0.0

exp_avg_sq f4 [12]
00000000: a34a 893b 11b2 8c39 bc0d a139 f63a a239
00000010: 1751 9c39 de4d 9839 194d 9013 ae28 a039
00000020: 7263 893b fbaf 9639 cca8 883b 0000 0000
0.0041898056 0.0002683555 0.00030718546 0.00030942977 0.00029815055 0.00029049715 3.6426735e-27 0.00030547887
0.004192763 0.00028741345 0.004170513 0.0

exp_avg f4 [2, 12]
00000000: 1664 00be b7e1 51bd 721d 13bd e9e8 0fbd
00000010: 5e73 20bd 564d 2cbd 0400 0000 7495 15bd
00000020: 8abb febd 453c 31bd 444f 00be 0000 0000
00000030: db59 18b8 80cf f138 cd7e e638 c0ea e538
00000040: 54e6 e838 5a09 eb38 0400 0000 def0 e638
00000050: 2a10 17b8 edec eb38 c35d 18b8 0000 0000
-0.1253818 -0.05124065 -0.035916753 -0.03513423 -0.039172523 -0.04206594 6e-45 -0.036519483
-0.12438114 -0.043270368 -0.12530237 0.0 -3.632331e-05 0.000115304254 0.00010990873 0.000109632965
0.00011105524 0.00011207415 6e-45 0.0001101212 -3.601626e-05 0.00011249804 -3.6326946e-05 0.0

exp_avg_sq f4 [2, 12]
00000000: 0071 963c e5d3 213f 6a83 083f cf47 073f
00000010: 99b4 0d3f 7167 123f 3b7b 2e14 8c77 093f
00000020: c0e9 933c 2562 143f ec28 963c 0000 0000
00000030: b98f 5b36 2ff3 9039 4c2b 7139 0dcd 6e39
00000040: 0826 7b39 e717 8239 3f35 2a0d 4e00 7339
00000050: 95ce 5736 6fff 8339 bc01 5b36 0000 0000
0.01836443 0.6321395 0.5332552 0.52843946 0.55353695 0.5718909 8.809058e-27 0.5369804
0.018055797 0.57962257 0.01833006 0.0 3.27172e-06 0.00027647006 0.0002299968 0.00022773836
0.00023951393 0.0002481334 5.2449387e-31 0.000231744 3.2157743e-06 0.0002517658 3.2634553e-06 0.0

exp_avg f4 [2]
00000000: 8771 e7bc a7e8 2737
-0.028252376 1.0008144e-05

exp_avg_sq f4 [2]
00000000: ab61 733c c15e f436
0.014854829 7.2827975e-06
